model/model.pth (torch, 16799 bytes, 4 tensors)

linear1.weight f4 [256, 11]
-0.22927125 0.107675426 0.114627115 0.41041905 0.36946297 -0.15673074 -0.36452466 -0.5108074
-0.6028055 0.06360561 0.19406216 0.20804557 -0.5561851 0.5866781 0.04139147 -0.18791422
0.12510093 -0.23621967 -0.38504303 0.031148285 0.045206293 0.17671944 -0.24688031 0.045430876
0.38404468 0.36076203 -0.085085325 -0.3943288 0.31960437 0.3089406 -0.31077147 -0.13503917
0.03496899 0.009406045 0.20831648 0.19620933 -0.25868434 0.09433879 -0.013698512 -0.21576102
0.39417747 -0.17555325 0.037038397 0.25662318 0.51176 -0.46603504 0.42386544 0.16250092
-0.07634136 0.049192134 -0.07486462 -0.076353975 0.33164486 0.07987958 0.10811253 -0.009376034
-0.6004267 0.009508805 -0.4973661 -0.06458419 -0.034787875 -0.24278256 0.35243577 -0.3119061
-0.20072316 0.07961129 0.35479364 0.30752674 -0.3147907 0.27057597 0.18761651 0.30453166
0.20911127 -0.12807344 -0.24552616 -0.044734243 0.19332635 0.2841677 -0.349084 0.065422796
-0.32688758 -0.1797246 0.343259 0.26406097 0.53387916 0.32945657 -0.1948269 -0.03996015
0.10660975 -0.3244902 -0.21503355 -0.19114746 0.16458485 -0.46487322 0.3678531 -0.31115234
-0.74072045 -0.4238882 0.38412786 -0.51315886 -0.15304814 -0.08218504 -0.45729893 0.37989628
-0.23218034 -0.4164284 -0.30871835 0.49136302 -0.27767584 -0.36671886 -0.14759867 0.4304781
-0.21140933 0.46426547 -0.6233382 -0.1188665 0.369981 0.20600437 -0.44743347 -0.5042206
0.12565291 -0.18260951 -0.22799647 0.044862576 -0.3500874 -0.41391018 0.114450306 0.34169623
0.32304588 0.29639596 -0.16732125 -0.36680993 -0.18839364 0.37992013 -0.06280488 -0.32598263
-0.44361672 0.23135771 0.38172936 -0.48611137 -0.50966746 0.26812956 0.27602938 -0.06926486
0.35929915 -0.24374703 0.2754419 -0.38027516 0.20213185 0.101667926 -0.024883213 -0.37087262
-0.069149315 -0.015552068 -0.21221645 0.46183616 0.4058155 -0.106939085 -0.348232 0.21869005
0.2396544 -0.3213122 -0.27838734 0.016773226 0.1259579 0.063025214 0.41974738 0.16486576
0.25414088 -0.33734685 0.11174438 -0.5274641 0.3475675 -0.25211978 -0.054513626 0.035697814
0.35989168 0.1066357 -0.24014825 -0.055474278 0.012159237 -0.063403144 0.07713383 -0.08742327
-0.18219326 -0.07262216 -0.040042903 -0.17967683 -0.20001952 0.34612492 -0.30699193 -0.02173207
0.26469383 -0.37016755 -0.42867848 0.13598259 0.17329995 -0.17682399 0.395451 0.036039893
0.08456186 -0.30021214 0.14323916 -0.17475452 0.22404316 0.27578542 -0.2493411 0.0713255
-0.28267533 0.49356636 -0.14959621 -0.007318108 -0.20568857 -0.28603733 -0.4557907 0.13005336
0.08111639 -0.12954399 0.28409222 -0.25292844 0.22886653 0.2537123 0.21272929 -0.07757391
-0.07799102 0.04216664 -0.07102127 0.33139423 0.35364696 0.09574705 0.32900205 0.36776027
-0.009860845 -0.70010823 -0.38362044 0.22318034 -0.15824601 0.0608273 0.5066925 -0.20240536
0.31613162 0.085552305 -0.127255 -0.69194865 0.0055385022 0.40799487 0.19133796 -0.2715616
0.19180907 0.36856264 -0.12699185 -0.039013755 -0.39325348 -0.0025513624 -0.1635913 0.12708083
00000000: 15c6 6abe ef84 dc3d 9fc1 ea3d 7222 d23e
00000010: 402a bd3e 067e 20be faa2 babe 46c4 02bf
00000020: 7651 1abf a843 823d 3bb8 463e e609 553e
00000030: 2662 0ebf 8930 163f 1a8a 293d 966c 40be
00000040: 751a 003e 92e3 71be 5c24 c5be b02a ff3c
00000050: 3c2a 393d f1f5 343e 31ce 7cbe ba15 3a3d
00000060: 81a1 c43e cdb5 b83e 3741 aebd 77e5 c9be
00000070: 2fa3 a33e 762d 9e3e 701d 9fbe b547 0abe
00000080: a53b 0f3d d01b 1a3c ea50 553e 19eb 483e
00000090: 4672 84be b234 c13d b96f 60bc 75f0 5cbe
000000a0: a1d1 c93e 3bc4 33be 93b5 173d 1d64 833e
000000b0: b402 033f 259c eebe e404 d93e a466 263e
000000c0: dc58 9cbd b17d 493d 9f52 99bd 795f 9cbd
000000d0: 5bcd a93e e897 a33d 1a6a dd3d f09d 19bc
000000e0: 90b5 19bf d2ca 1b3c c5a6 febe b744 84bd
000000f0: bb7d 0ebd fe9b 78be 7672 b43e 28b2 9fbe
00000100: 5f8a 4dbe 3e0b a33d 83a7 b53e 2574 9d3e
00000110: 3f2c a1be ef88 8a3e 8b1e 403e 93eb 9b3e
00000120: 4421 563e af25 03be 366b 7bbe 413b 37bd
00000130: 58f7 453e 6e7e 913e 23bb b2be 63fc 853d
00000140: cf5d a7be ba09 38be a5bf af3e 0033 873e
00000150: 4eac 083f 88ae a83e b480 47be 41ad 23bd
00000160: 3656 da3d 9423 a6be c131 5cbe 29bc 43be
00000170: ee88 283e dd03 eebe 3e57 bc3e 5c4f 9fbe
00000180: db9f 3dbf e007 d9be 68ac c43e 615e 03bf
00000190: a7b8 1cbe a150 a8bd 1623 eabe c481 c23e
000001a0: afc0 6dbe 1a36 d5be 5510 9ebe ef93 fb3e
000001b0: 872b 8ebe 93c2 bbbe 1b24 17be a067 dc3e
000001c0: b07b 58be 34b4 ed3e 1893 1fbf 4870 f3bd
000001d0: 266e bd3e cff2 523e 0016 e5be 9a14 01bf
000001e0: 28ab 003e fdfd 3abe e877 69be d2c1 373d
000001f0: a83e b3be 09ec d3be ec64 ea3d cff2 ae3e
00000200: 4566 a53e 36c1 973e 4356 2bbe 83ce bbbe
00000210: 43ea 40be e484 c23e d89f 80bd 32e7 a6be
00000220: bb21 e3be 09e9 6c3e 0872 c33e 97e3 f8be
00000230: 9179 02bf 4748 893e b953 8d3e bcda 8dbd
00000240: 0ff6 b73e d298 79be b906 8d3e 6db3 c2be
00000250: a7fb 4e3e 4637 d03d e1d7 cbbc 04e3 bdbe
00000260: 289e 8dbd 1ace 7ebc 454f 59be ca75 ec3e
00000270: 0dc7 cf3e e102 dbbd 774b b2be 49f0 5f3e
00000280: f767 753e 0883 a4be c988 8ebe 0168 893c
00000290: 1cfb 003e 5d13 813d 21e9 d63e 92d2 283e
000002a0: c11e 823e bab8 acbe 3dda e43d e307 07bf
000002b0: 5ef4 b13e d815 81be ae49 5fbd df37 123d
000002c0: b943 b83e d163 da3d 6ce9 75be ff38 63bd
000002d0: 8937 473c 82d9 81bd 57f8 9d3d f90a b3bd
000002e0: df90 3abe edba 94bd 0704 24bd 34fd 37be
000002f0: ebd1 4cbe 4937 b13e 0c2e 9dbe 7407 b2bc
00000300: f385 873e 9a86 bdbe bf7b dbbe 053f 0b3e
00000310: 8b75 313e 5911 35be 8e78 ca3e 919e 133d
00000320: c52e ad3d 68b5 99be 49ad 123e d9f2 32be
00000330: 926b 653e bf33 8d3e 4653 7fbe 1b13 923d
00000340: d2ba 90be bbb4 fc3e c02f 19be bdcc efbb
00000350: 06a0 52be 7c73 92be 665d e9be b52c 053e
00000360: 5a20 a63d 2ea7 04be 8974 913e d67f 81be
00000370: fd5b 6a3e 94e6 813e b5d5 593e 12df 9ebd
00000380: c2b9 9fbd edb6 2c3d 9973 91bd 81ac a93e
00000390: 3711 b53e 0817 c43d f572 a83e 134b bc3e
000003a0: 628f 21bc 4b3a 33bf e669 c4be 6389 643e
000003b0: 3e0b 22be 0c26 793d 9ab6 013f 5a43 4fbe
000003c0: 01dc a13e 0c36 af3d 224f 02be 8c23 31bf
000003d0: 537c b53b b4e4 d03e 19ee 433e 1f0a 8bbe
000003e0: 9969 443e 3eb4 bc3e 270a 02be e3cc 1fbd
000003f0: 8558 c9be c234 27bb 7a84 27be 7a21 023e

linear1.bias f4 [256]
0.0060454034 0.12199533 0.22356243 -0.20532443 -0.26779407 0.1388336 0.6174926 -0.23162976
0.036361367 -0.06429652 0.14869943 0.011476793 -0.031319935 0.31401747 0.041819137 -0.15422153
0.02350447 0.15826276 0.0048604626 0.077168256 -0.28042942 -0.17008305 -0.084942326 -0.09931212
0.30826306 -0.10259777 0.11414997 -0.1939681 -0.15390956 0.08364685 -0.09410926 -0.2959726
0.06520356 0.11828509 -0.13140419 -0.18949941 -0.14794095 -0.08324804 -0.16885601 -0.04742495
-0.20198275 0.060376085 -0.14045814 -0.0059340554 -0.28809318 -0.13595611 -0.2534497 -0.023916041
-0.26191154 -0.054504074 0.36245066 -0.19133504 -0.22365385 -0.3322147 -0.05466851 -0.24547294
0.12944229 -0.27246857 -0.12339033 0.04934302 -0.07557482 -0.2091692 0.0026061907 -0.4074289
0.22542296 -0.19090454 0.15024124 -0.10036518 -0.2721753 -0.25599802 0.092814825 -0.16475046
-0.1414085 -0.3401882 -0.27284655 -0.1369257 -0.225283 -0.08847007 -0.17896537 -0.28097743
-0.2684738 -0.07602173 -0.057978496 0.41498113 -0.19732752 -0.24810775 0.50707227 0.20399138
0.12615046 -0.0030290023 0.17242047 0.1670507 -0.11800219 -0.21937414 -0.09992719 0.16872177
-0.03895118 0.21045502 -0.23432834 0.09178287 -0.16594207 0.18840215 0.0931371 -0.09816777
-0.35443184 0.51155025 0.056568727 0.13278244 -0.4072793 -0.46376067 -0.007346861 0.4601781
-0.28106532 -0.08514853 0.23438852 -0.18759716 0.07759107 -0.07214105 0.0021327734 -0.26627302
-0.15296221 0.10762844 -0.08368035 0.067613676 -0.06560882 0.05413264 0.13260993 0.0016419285
0.13096452 0.16282102 -0.05652167 0.066848285 0.056104083 -0.19612718 -0.3226833 0.10684269
0.6716699 -0.37014535 -0.42940137 -0.23455882 0.3235293 0.043542475 -0.1690024 -0.10158225
0.19189724 0.11349943 0.15895349 -0.17494932 0.40976083 0.0833264 -0.102330044 0.0815014
-0.123335585 -0.110015266 -0.36207935 -0.06566173 -0.1716458 -0.28799093 -0.17677295 0.01666495
-0.14984576 0.12255528 0.24724868 -0.015762897 -0.10973142 -0.26240766 -0.18496072 -0.19732928
0.03999385 -0.12531313 -0.3822888 0.32101348 -0.26781029 -0.04070059 -0.08165486 -0.19279376
-0.16573425 -0.36503744 -0.016725942 -0.174835 -0.05218792 -0.017199678 -0.05376428 -0.22239643
-0.27213022 -0.29291373 -0.051425163 -0.12984362 -0.10743126 -0.13831182 -0.15156151 -0.1332571
-0.31064066 -0.023792727 0.00016642106 -0.10308479 0.22685751 0.072996594 0.10407138 -0.06289292
0.5149177 -0.39032575 0.24689704 -0.25086772 -0.3190016 0.1216005 -0.34819084 0.028397162
-0.23481916 -0.1698496 -0.16328606 -0.2513028 -0.1675726 -0.28315774 0.05638212 -0.12813108
-0.20031272 -0.23381907 -0.057552554 0.00015844833 0.16435589 0.13888384 -0.27982217 -0.064699955
0.3888095 -0.10189425 -0.052275263 -0.20761544 -0.20207457 -0.12744735 -0.2306798 -0.089883514
0.21689394 -0.35592747 0.21385264 -0.063886136 -0.23018554 0.20723997 -0.24026278 -0.3085998
-0.30857912 -0.35767698 -0.24815689 -0.13229571 -0.052225556 0.26310536 -0.36411938 -0.21781248
0.026239553 0.0048512486 -0.08963013 0.74096966 -0.33760652 -0.28168264 0.057195596 -0.264234
00000000: 8518 c63b b0d8 f93d 8ded 643e 9140 52be
00000010: 4e1c 89be 652a 0e3e ff13 1e3f 5a30 6dbe
00000020: a8ef 143d e5ad 83bd aa44 183e 2909 3c3c
00000030: 5549 00bd e6c6 a03e 8b4a 2b3d 40ec 1dbe
00000040: 728c c03c a20f 223e 8444 9f3b 640a 9e3d
00000050: 7294 8fbe 402a 2ebe 3ef6 adbd 2764 cbbd
00000060: a8d4 9d3e c81e d2bd 76c7 e93d 939f 46be
00000070: 789a 1dbe 0a4f ab3d 5bbc c0bd b889 97be
00000080: 7289 853d 743f f23d d28e 06be 220c 42be
00000090: d57d 17be f37d aabd 97e8 2cbe aa40 42bd
000000a0: 91d4 4ebe ea4c 773d 42d4 0fbe 7772 c2bb
000000b0: f380 93be 1438 0bbe 29c4 81be 93eb c3bc
000000c0: 4519 86be aa3f 5fbd 2293 b93e 55ed 43be
000000d0: 8405 65be 0c18 aabe 16ec 5fbd 425d 7bbe
000000e0: 858c 043e 0081 8bbe 12b4 fcbd e81b 4a3d
000000f0: f9c6 9abd 7330 56be a0cc 2a3b 859a d0be
00000100: 47d5 663e 7b7c 43be d7d8 193e 428c cdbd
00000110: 905a 8bbe 2c12 83be b315 be3d 58b4 28be
00000120: 64cd 10be 262d aebe 8bb2 8bbe 4036 0cbe
00000130: 96b0 66be cc2f b5bd b342 37be 46dc 8fbe
00000140: 6675 89be 48b1 9bbd dc7a 6dbd 6878 d43e
00000150: 3a10 4abe f50f 7ebe 7dcf 013f 1ee3 503e
00000160: 962d 013e 3a82 46bb fe8e 303e 570f 2b3e
00000170: 22ab f1bd 9da3 60be a0a6 ccbd 66c5 2c3e
00000180: 468b 1fbd 8581 573e c5f3 6fbe a8f8 bb3d
00000190: b8ec 29be 7eec 403e aabe be3d 2f0c c9bd
000001a0: 1778 b5be f5f4 023f 9cb4 673d 1ff8 073e
000001b0: ea86 d0be 0a72 edbe f0bd f0bb 779c eb3e
000001c0: cbe7 8fbe 5a62 aebd 8b03 703e 7819 40be
000001d0: 11e8 9e3d b0be 93bd 00c6 0b3b f054 88be
000001e0: 20a2 1cbe 4d6c dc3d 9a60 abbd 0a79 8a3d
000001f0: eb5d 86bd 30ba 5d3d e6ca 073e fa35 d73a
00000200: 901b 063e 8eba 263e 4483 67bd c1e7 883d
00000210: 65cd 653d 90d5 48be bf36 a5be 57d0 da3d
00000220: 8ff2 2b3f b183 bdbe 7fda dbbe 3030 70be
00000230: a2a5 a53e 9859 323d f70e 2dbe 5b0a d0bd
00000240: b680 443e 6472 e83d b4c4 223e ea25 33be
00000250: 2ccc d13e 08a7 aa3d 6a92 d1bd 35ea a63d
00000260: 5e97 fcbd af4f e1bd 7762 b9be a879 86bd
00000270: ebc3 2fbe 8c73 93be f803 35be ef84 883c
00000280: 2b71 19be 43fe fa3d c22e 7d3e 3121 81bc
00000290: deba e0bd 4c5a 86be 5866 3dbe b010 4abe
000002a0: 97d0 233d 1652 00be 5cbb c3be e15b a43e
000002b0: 6e1e 89be a9b5 26bd aa3a a7bd ba6b 45be
000002c0: 3db6 29be 30e6 babe d804 89bc f207 33be
000002d0: 00c3 55bd 57e6 8cbc ef37 5cbd e4bb 63be
000002e0: a754 8bbe caf8 95be 31a3 52bd baf5 04be
000002f0: ec04 dcbd 9da1 0dbe f132 1bbe 8d74 08be
00000300: 4b0c 9fbe f7e8 c2bc 5081 2e39 1e1e d3bd
00000310: 564d 683e 3d7f 953d 6023 d53d 01ce 80bd
00000320: a5d1 033f c7d8 c7be 94d2 7c3e bc71 80be
00000330: 2d54 a3be af09 f93d 1246 b2be 2aa1 e83c
00000340: 6f74 70be 0eed 2dbe 7634 27be c3aa 80be
00000350: 2798 2bbe 0dfa 90be f0f0 663d cb34 03be
00000360: c71e 4dbe 446e 6fbe 3abc 6bbd 2625 2639
00000370: e94c 283e 9137 0e3e da44 8fbe 6981 84bd
00000380: 0a12 c73e efad d0bd 961e 56bd 2499 54be
00000390: a3ec 4ebe 8f81 02be 5337 6cbe d914 b8bd
000003a0: 7219 5e3e 203c b6be 30fc 5a3e bcd6 82bd
000003b0: c2b5 6bbe b736 543e 7207 76be cb00 9ebe
000003c0: 15fe 9dbe 7021 b7be d71c 7ebe 8778 07be
000003d0: 77ea 55bd bfb5 863e db6d babe 3c0a 5fbe
000003e0: 55f4 d63c 39f7 9e3b 0090 b7bd 30b0 3d3f
000003f0: c3da acbe b538 90be ee45 6a3d ae49 87be

linear2.weight f4 [3, 256]
-0.31945282 0.034019377 0.33744544 -0.11995575 -0.21282943 -0.25563768 0.14967205 -0.6986401
0.4496286 0.3972667 0.41274443 -0.535595 0.5864207 0.18219592 0.19354776 0.10870206
0.02767755 0.24585898 -0.32139418 -0.30179608 -0.10118021 -0.467972 0.1355776 -0.50808966
0.44800723 0.2253923 0.24243607 -0.1530179 -0.30220947 -0.60773164 -0.09124221 -0.23568253
-0.25502053 0.049092527 0.037903465 -0.036680754 -0.102669396 -0.2884643 -0.18706092 -0.24378899
-0.30702204 -0.02313674 -0.112543285 -0.18549687 -0.14458586 -0.21085976 0.10958085 0.0026973013
0.19052058 0.0059336945 0.31605247 -0.10517214 0.007273522 -0.12133929 -0.13158281 -0.12503919
0.101091474 -0.05395411 0.062075622 0.56724304 0.15491334 -0.5908856 -0.35538092 -0.27782756
0.44088307 -0.19654943 0.47636068 -0.25375617 -0.008739896 -0.0066578537 0.10725495 -0.43655786
-0.29241055 -0.02340105 -0.010226806 0.20122492 -0.19523402 0.022438798 -0.35636 -0.17532475
-0.29492667 -0.0512147 0.50682896 0.22620074 0.017029852 -0.23526473 0.21155109 0.39797002
0.3952817 -0.310887 0.13083367 0.514952 -0.01675722 -0.21687494 -0.020771474 -0.24262293
-0.110793434 0.6908775 -0.078302085 0.08920442 0.027794288 -0.4150183 -0.64596117 0.59832776
-0.024145091 0.38279963 -0.2929609 0.3154439 -0.025899654 -0.027388288 0.40222666 0.4194613
0.010850133 0.052360915 0.32365242 -0.30030325 0.37720972 0.0112656625 -0.52308804 -0.23267588
-0.023857549 0.4241312 0.53451955 -0.053475324 -0.11044358 0.28301606 0.13879153 0.15856762
-0.1978596 0.090534784 -0.046453755 0.043262877 -0.26945627 -0.17909676 -0.37234655 0.20136786
0.17061825 0.037415452 -0.04316388 -0.009292992 0.40055516 -0.040047348 -0.060829848 -0.084796645
0.03651874 0.017753955 0.56796765 -0.34196615 0.20226058 -0.0010439679 -0.19620116 0.13748817
-0.07003344 -0.19937688 -0.004157128 -0.03862652 0.252808 -0.24936877 -0.082927585 0.4306556
0.31105655 0.09347751 0.18737222 -0.03255603 -0.22524038 -0.07865096 -0.023675488 -0.27275202
0.060254563 0.00435422 -0.23379743 0.2441614 -0.010320929 -0.4096354 -0.019425875 -0.500985
0.04919586 0.021551022 -0.21711981 -0.28921303 0.33074272 0.007954438 0.23151185 -0.13184896
0.06093546 -0.16642046 -0.07562763 0.11813053 0.46356338 -0.34580016 -0.26391008 -0.02394769
-0.37851176 0.24277699 -0.05313474 0.30776986 0.35568866 0.09501511 -0.48540127 -0.52413344
0.27642766 -0.019335618 -0.45432937 -0.088596895 -0.20389977 0.2915106 -0.07436123 -0.46782
-0.040690836 -0.05317138 -0.16951542 0.012617938 0.23157026 -0.4910748 0.4051798 -0.26906145
-0.13219488 -0.08022805 0.22206639 -0.01351314 0.02034318 0.039508007 -0.0108966455 -0.076432325
0.18119302 -0.11110174 0.04897941 0.031571858 -0.15096435 -0.016064052 -0.051880337 -0.29523134
0.1883956 -0.23688862 0.08795648 0.0048829326 -0.06040944 0.29003224 -0.24671058 -0.27947062
-0.2680142 0.009073794 0.016458562 0.27924287 -0.018102985 0.22315729 -0.114012375 -0.25137407
0.28868574 0.030774165 -0.0033689525 0.3300514 -0.3283878 -0.3477288 0.14709824 -0.037534527
00000000: 528f a3be e757 0b3d a6c5 ac3e 5cab f5bd
00000010: f5ef 59be f1e2 82be a143 193e 14da 32bf
00000020: b835 e63e 8a66 cb3e 3d53 d33e c11c 09bf
00000030: ab1f 163f 9191 3a3e 6231 463e 309f de3d
00000040: 08bc e23c 75c2 7b3e c78d a4be 0485 9abe
00000050: 9237 cfbd 079a efbe dbd4 0a3e 2a12 02bf
00000060: 3461 e53e 3dcd 663e 2941 783e b9b0 1cbe
00000070: 33bb 9abe 4d94 1bbf 32dd babd c356 71be
00000080: 0d92 82be 3f15 493d aa40 1b3d 8f3e 16bd
00000090: 5544 d2bd 98b1 93be e68c 3fbe d2a3 79be
000000a0: fe31 9dbe 4389 bdbc 187d e6bd e4f2 3dbe
000000b0: 510e 14be 9feb 57be ed6b e03d 35c5 303b
000000c0: d417 433e 706f c23b a1d1 a13e 7e64 d7bd
000000d0: ba56 ee3b bc80 f8bd a5bd 06be 460a 00be
000000e0: 0c09 cf3d fcfe 5cbd 0243 7e3d d736 113f
000000f0: 9aa1 1e3e 4744 17bf 7df4 b5be 6a3f 8ebe
00000100: 6dbb e13e 4144 49be 8ce5 f33e 54ec 81be
00000110: c831 0fbc 202a dabb 7ca8 db3d 8384 dfbe
00000120: d6b6 95be 8fb3 bfbc 558e 27bc e80d 4e3e
00000130: 6deb 47be 92d1 b73c d174 b6be 5588 33be
00000140: a100 97be 81c6 51bd 8bbf 013f 2ba1 673e
00000150: 3082 8b3c 3de9 70be d9a0 583e bac2 cb3e
00000160: 5d62 ca3e 952c 9fbe 43f9 053e e5d3 033f
00000170: 7046 89bc 7714 5ebe f028 aabc 2572 78be
00000180: abe7 e2bd 59dd 303f d85c a0bd cfb0 b63d
00000190: d9b0 e33c 477d d4be b65d 25bf 022c 193f
000001a0: edcb c5bc 50fe c33e f9fe 95be dd81 a13e
000001b0: 832b d4bc 675d e0bc a7f0 cd3e a2c3 d63e
000001c0: c2c4 313c 6678 563d c5b5 a53e 59c1 99be
000001d0: a221 c13e 9d93 383c 19e9 05bf 9642 6ebe
000001e0: e870 c3bc ba27 d93e 46d6 083f f108 5bbd
000001f0: 3e30 e2bd 7be7 903e 5e1f 0e3e 8d5f 223e
00000200: b59b 4abe 4d6a b93d 4b46 3ebd 6a34 313d
00000210: 2cf6 89be 2465 37be 35a4 bebe 6033 4e3e
00000220: 8db6 2e3e f240 193d 9ccc 30bd a241 18bc
00000230: 9115 cd3e b008 24bd b828 79bd dda9 adbd
00000240: ad94 153d be70 913c 5466 113f 3016 afbe
00000250: 661d 4f3e c0d5 88ba f5e8 48be b3c9 0c3e
00000260: b16d 8fbd 7429 4cbe 8438 88bb d836 1ebd
00000270: 0d70 813e 875a 7fbe f0d5 a9bd e47e dc3e
00000280: ce42 9f3e 2371 bf3d 81de 3f3e 7959 05bd
00000290: 6aa5 66be c113 a1bd 19f3 c1bc 27a6 8bbe
000002a0: 7dcd 763d d8ad 8e3b 9868 6fbe 7205 7a3e
000002b0: 1d19 29bc bbbb d1be 0323 9fbc 8e40 00bf
000002c0: 9981 493d c58b b03c a854 5ebe bb13 94be
000002d0: 1c57 a93e 5553 023c 7111 6d3e 6a03 07be
000002e0: 7697 793d 206a 2abe a9e2 9abd 6bee f13d
000002f0: 2e58 ed3e b80c b1be 391f 87be f22d c4bc
00000300: 4bcc c1be 889a 783e d0a3 59bd 0394 9d3e
00000310: d31c b63e 4897 c23d 8486 f8be 9c2d 06bf
00000320: ed87 8d3e bb65 9ebc dc9d e8be 4a72 b5bd
00000330: 1acb 50be e140 953e b34a 98bd 1a86 efbe
00000340: 6fab 26bd 3cca 59bd 7395 2dbe 78bb 4e3c
00000350: c120 6d3e 286e fbbe ba73 cf3e 6cc2 89be
00000360: 185e 07be 9b4e a4bd 5f65 633e 3866 5dbc
00000370: bea6 a63c 26d3 213d d887 32bc 8d88 9cbd
00000380: aa8a 393e 4f89 e3bd a29e 483d 7e51 013d
00000390: 6696 1abe c298 83bc 7a80 54bd 9028 97be
000003a0: c7ea 403e ee92 72be 8722 b43d 0201 a03b
000003b0: e46f 77bd 1b7f 943e b3a1 7cbe c616 8fbe
000003c0: 2839 89be 40aa 143c 1bd4 863c ecf8 8e3e
000003d0: b64c 94bc 5883 643e 527f e9bd 1ab4 80be
000003e0: 9ece 933e 1a1a fc3c a5c9 5cbb 7ffc a83e
000003f0: 7222 a8be 8209 b2be eca0 163e cebd 19bd

linear2.bias f4 [3]
0.28770792 0.057625033 0.06738641
00000000: 744e 933e 3a08 6c3d e301 8a3d
